…
# Training samples:  105266
# Inference samples:  25073
Training time:  2094.370660305023
Inference time:  56.93394899368286
Result in RMSE:  8.58
--


python3 inference_lstm_aggr.py -w 50 -s 50 -f 10 -k 10 -bs 128 -ep 50 -pt 20 -vs 0.1 -lr 0.001 -sub 1 -l1 200 -l2 100

None


------
python3 inference_cnn_aggr.py -w 50 -s 1 -f 10 -k 10 -bs 1024 -ep 30 -pt 5 -vs 0.1 -lr 0.001 -sub 1

_________________________________________________________________
Layer (type)                 Output Shape              Param #   
=================================================================
conv1d (Conv1D)              (None, 50, 10)            2010      
_________________________________________________________________
activation (Activation)      (None, 50, 10)            0         
_________________________________________________________________
conv1d_1 (Conv1D)            (None, 50, 10)            1010      
_________________________________________________________________
activation_1 (Activation)    (None, 50, 10)            0         
_________________________________________________________________
conv1d_2 (Conv1D)            (None, 50, 1)             101       
_________________________________________________________________
activation_2 (Activation)    (None, 50, 1)             0         
_________________________________________________________________
flatten (Flatten)            (None, 50)                0         
_________________________________________________________________
dense (Dense)                (None, 50)                2550      
_________________________________________________________________
activation_3 (Activation)    (None, 50)                0         
_________________________________________________________________
dense_1 (Dense)              (None, 1)                 51        
_________________________________________________________________
activation_4 (Activation)    (None, 1)                 0         
=================================================================
Total params: 5,722
Trainable params: 5,722
Non-trainable params: 0



The FLOPs is:316201
wind length_50,  win stride_1
# Training samples:  5263153
# Inference samples:  1253596
Training time:  607.8749282360077
Inference time:  175.1513340473175
Result in RMSE:  6.41

The FLOPs is:316201
wind length_50,  win stride_1
# Training samples:  5263153
…
Training time:  374.1161558628082
Inference time:  186.19594287872314
Result in RMSE:  6.22

The FLOPs is:316201
wind length_50,  win stride_1
# Training samples:  5263153
# Inference samples:  1253596
Training time:  464.5009346008301
Inference time:  171.41551899909973
Result in RMSE:  6.76


------
python3 inference_cnn_aggr.py -w 50 -s 1 -f 10 -k 10 -bs 1024 -ep 30 -pt 5 -vs 0.1 -lr 0.001 -sub 1

_________________________________________________________________
Layer (type)                 Output Shape              Param #   
=================================================================
conv1d (Conv1D)              (None, 50, 10)            2010      
_________________________________________________________________
activation (Activation)      (None, 50, 10)            0         
_________________________________________________________________
conv1d_1 (Conv1D)            (None, 50, 10)            1010      
_________________________________________________________________
activation_1 (Activation)    (None, 50, 10)            0         
_________________________________________________________________
conv1d_2 (Conv1D)            (None, 50, 1)             101       
_________________________________________________________________
activation_2 (Activation)    (None, 50, 1)             0         
_________________________________________________________________
flatten (Flatten)            (None, 50)                0         
_________________________________________________________________
dense (Dense)                (None, 50)                2550      
_________________________________________________________________
activation_3 (Activation)    (None, 50)                0         
_________________________________________________________________
dense_1 (Dense)              (None, 1)                 51        
_________________________________________________________________
activation_4 (Activation)    (None, 1)                 0         
=================================================================
Total params: 5,722
Trainable params: 5,722
Non-trainable params: 0


The FLOPs is:316201
wind length_50,  win stride_1
# Training samples:  5263153
# Inference samples:  1253596
Training time:  481.82790064811707
Inference time:  192.6196575164795
Result in RMSE:  6.74







------------------

python3 inference_cnn_aggr.py -w 50 -s 1 -f 20 -k 10 -bs 1024 -ep 30 -pt 5 -vs 0.1 -lr 0.001 -sub 1

_________________________________________________________________
Layer (type)                 Output Shape              Param #   
=================================================================
conv1d (Conv1D)              (None, 50, 20)            4020      
_________________________________________________________________
activation (Activation)      (None, 50, 20)            0         
_________________________________________________________________
conv1d_1 (Conv1D)            (None, 50, 20)            4020      
_________________________________________________________________
activation_1 (Activation)    (None, 50, 20)            0         
_________________________________________________________________
conv1d_2 (Conv1D)            (None, 50, 1)             201       
_________________________________________________________________
activation_2 (Activation)    (None, 50, 1)             0         
_________________________________________________________________
flatten (Flatten)            (None, 50)                0         
_________________________________________________________________
dense (Dense)                (None, 50)                2550      
_________________________________________________________________
activation_3 (Activation)    (None, 50)                0         
_________________________________________________________________
dense_1 (Dense)              (None, 1)                 51        
_________________________________________________________________
activation_4 (Activation)    (None, 1)                 0         
=================================================================
Total params: 10,842
Trainable params: 10,842
Non-trainable params: 0
_____________________________

The FLOPs is:827201
wind length_50,  win stride_1
# Training samples:  5263153
# Inference samples:  1253596
Training time:  705.665456533432
Inference time:  223.54039072990417
Result in RMSE:  7.06
_


The FLOPs is:827201
wind length_50,  win stride_1
# Training samples:  5263153
# Inference samples:  1253596
Training time:  398.14663219451904
Inference time:  188.96166396141052
Result in RMSE:  6.69

(no random)
python3 inference_cnn_aggr.py -w 50 -s 1 -f 10 -k 10 -bs 1024 -ep 50 -pt 10 -vs 0.1 -lr 0.001 -sub 1

Layer (type)                 Output Shape              Param #   
=================================================================
conv1d (Conv1D)              (None, 50, 10)            2010      
_________________________________________________________________
activation (Activation)      (None, 50, 10)            0         
_________________________________________________________________
conv1d_1 (Conv1D)            (None, 50, 10)            1010      
_________________________________________________________________
activation_1 (Activation)    (None, 50, 10)            0         
_________________________________________________________________
conv1d_2 (Conv1D)            (None, 50, 1)             101       
_________________________________________________________________
activation_2 (Activation)    (None, 50, 1)             0         
_________________________________________________________________
flatten (Flatten)            (None, 50)                0         
_________________________________________________________________
dense (Dense)                (None, 50)                2550      
_________________________________________________________________
activation_3 (Activation)    (None, 50)                0         
_________________________________________________________________
dense_1 (Dense)              (None, 1)                 51        
_________________________________________________________________
activation_4 (Activation)    (None, 1)                 0         
=================================================================
Total params: 5,722
Trainable params: 5,722
Non-trainable params: 0



The FLOPs is:316201
wind length_50,  win stride_1
# Training samples:  5263153
# Inference samples:  1253596
Training time:  255.15105366706848
Inference time:  207.53027749061584
Result in RMSE:  5.98

The FLOPs is:316201
wind length_50,  win stride_1
# Training samples:  5263153
…
# Inference samples:  1253596
Training time:  346.79398560523987
Inference time:  161.0526168346405
Result in RMSE:  5.93

The FLOPs is:316201
wind length_50,  win stride_1
# Training samples:  5263153
# Inference samples:  1253596
Training time:  410.06535148620605
Inference time:  181.4243414402008
Result in RMSE:  5.51




---
python3 inference_lstm_aggr.py -w 50 -s 1 -f 10 -k 10 -bs 1024 -ep 30 -pt 5 -vs 0.1 -lr 0.001 -sub 1 -l1 200 -l2 100 

Layer (type)                 Output Shape              Param #   
=================================================================
lstm (LSTM)                  (None, 50, 200)           176800    
_________________________________________________________________
dropout (Dropout)            (None, 50, 200)           0         
_________________________________________________________________
lstm_1 (LSTM)                (None, 100)               120400    
_________________________________________________________________
dropout_1 (Dropout)          (None, 100)               0         
_________________________________________________________________
dense (Dense)                (None, 1)                 101       
_________________________________________________________________
activation (Activation)      (None, 1)                 0         
=================================================================
Total params: 297,301
Trainable params: 297,301
Non-trainable params: 0


The FLOPs is:594309
wind length_50,  win stride_1
# Training samples:  5263153
# Inference samples:  1253596
Training time:  5839.377256155014
Inference time:  269.13259053230286
Result in RMSE:  5.56

The FLOPs is:594309
wind length_50,  win stride_1
…
